test_model.pth (torch, 104166 bytes, 6 tensors)

hidden_one.weight f4 [154, 78]
000000 9a 7e f2 be 1d 10 32 3c dc d7 1a bf fb 00 03 bf
       -0.47362214 0.0108680995 -0.60485625 -0.5117337
000010 04 c0 4a bf 42 79 3f bd 18 b5 32 bf 16 a6 cc 3d
       -0.7919924 -0.0467465 -0.6980758 0.09992616
000020 37 cc 0f bf f2 37 56 bf 90 cb 57 bb 86 c1 98 be
       -0.5617098 -0.83679116 -0.003292773 -0.29835147
000030 a1 55 4b be 66 db 4b be 44 bd 3c be 87 85 09 bd
       -0.19856884 -0.19907913 -0.18431574 -0.033574607
000040 b0 79 53 bd 44 21 0f bd e2 a6 7f 3d fd 1f 31 bd
       -0.051629722 -0.034943834 0.06241501 -0.043243397
000050 63 76 c8 bd b8 3b 99 3d c2 f4 b5 bc f6 30 29 3d
       -0.097882055 0.074820936 -0.022211436 0.04130646
000060 c8 1c b2 3d b9 b2 ba bd bf 70 bb bd 26 42 0a 3e
       0.08696896 -0.0911612 -0.09152364 0.13501796
000070 0b 91 f1 bc 8a 7c 52 3d d7 4a 85 bc 25 70 bc 3d
       -0.029488107 0.0513883 -0.016271038 0.09201077
000080 93 c8 a8 be 4c 0b d3 bd 8d 38 06 bc 6b e5 96 3d
       -0.32965526 -0.10304889 -0.008192194 0.07367977
000090 19 54 f5 3d a9 02 b3 3c 5c df 92 3d 64 36 3e be
       0.11978931 0.021851854 0.07171509 -0.18575436
0000a0 c9 10 d3 bd 65 71 8b be 40 a1 95 bd b4 33 5c bf
       -0.10305936 -0.2723495 -0.073061466 -0.8601639
0000b0 de 9d 35 bd 00 70 06 bc 0e 35 27 bf a7 27 4a 3f
       -0.044340007 -0.008205414 -0.6531533 0.78966755
0000c0 f8 66 aa bc 10 8e 79 be 46 81 57 bd ac 96 c1 3e
       -0.020801052 -0.24370599 -0.05261352 0.37810266
0000d0 ed 4a 5a be ea 01 f6 be 17 43 63 be bc 25 e6 3d
       -0.21317644 -0.48048335 -0.22193561 0.11237666
0000e0 70 c8 8f bd d3 d5 bc bd 00 85 bd bc a1 e1 cf bd
       -0.07020652 -0.09220471 -0.023134708 -0.10150457
0000f0 44 30 c6 bc c3 80 db 3d c5 00 0f bf d0 ed 3f bf
       -0.024192937 0.10717919 -0.5586055 -0.7497225
000100 50 6d 08 bf 46 39 08 be 7c bd b8 be 93 f7 4b be
       -0.532918 -0.13303098 -0.36082065 -0.19918661
000110 b0 8c 1c bf 1a 76 7c bc c6 1e ad 3a d1 83 9b bc
       -0.6115217 -0.015409017 0.0013208024 -0.018983753
000120 af 7a bb bc 62 35 cc bd 65 60 6f 3d 2b a1 fc bc
       -0.022885649 -0.099711195 0.05844154 -0.03083857
000130 0b 8e 09 bc 81 9d d3 bd 9f b7 89 3e 56 64 c1 3c
       -0.008395682 -0.10332776 0.26897904 0.023607414
000140 d4 c7 1b 3d 83 20 9b 3b d3 94 0f 3e fd 12 d7 bd
       0.038032368 0.0047341003 0.14021616 -0.105016686
000150 2a f7 d8 bd e8 96 57 3e d2 56 9e bd 23 2e a8 bd
       -0.10594018 0.2105366 -0.077314034 -0.08211925
000160 1b 1f 98 be 98 23 03 be 87 4b be be 3c b5 9e be
       -0.29711232 -0.12806547 -0.37166998 -0.30997646
000170 6d 1d c7 bd e4 e3 c4 bd 14 52 94 3c 2b 61 50 3d
       -0.097224094 -0.09613779 0.018105544 0.050873917
000180 6e 8a 61 3d a7 28 03 be a6 bf 0e 3c 87 b1 18 3d
       0.055063657 -0.12808476 0.008712685 0.03727868
000190 97 4b 29 bd 40 69 0c be 5d 72 ea bd 8d 6d 4b 3c
       -0.041331854 -0.13712025 -0.11447594 0.012416256
0001a0 05 fd 13 3d 6c 8f 0e be 48 9d 5c 3d 5a 1c 8d bd
       0.03612997 -0.13921899 0.053860933 -0.06890173
0001b0 8f a4 41 bf 40 8e 95 3b 22 e8 66 3d bc f5 b3 bd
       -0.7564172 0.0045640767 0.056373723 -0.087871045
0001c0 f4 71 27 3d 8a 4f 60 bd af 2b e3 bd ed 60 ff be
       0.04088016 -0.054763354 -0.11092316 -0.49878636
0001d0 13 8e 86 3e 63 6b 38 be 78 7f a5 be f2 7c 25 be
       0.2628027 -0.18009715 -0.32323813 -0.16160944
0001e0 0a 75 26 be f6 29 b3 be 95 17 32 bf c4 e3 e9 bc
       -0.16255584 -0.3499295 -0.69567233 -0.02855099
0001f0 7d da 96 be e8 79 16 3f df 6d ff 3d 02 56 c3 bd
       -0.29463568 0.58779764 0.12472128 -0.09537889
000200 06 23 85 3d ac ff 4f bd 3c 61 b0 be 05 57 c3 3d
       0.06500821 -0.050780937 -0.34449184 0.09538082
000210 83 6a 9b be bd 9b bd 3d 80 42 3f bd bd d7 af bd
       -0.303547 0.0925822 -0.04669428 -0.08586071
000220 fe 8f 13 bd 2a 7b 3a bd 62 06 0b 3d 5d 97 ca 3d
       -0.036025994 -0.045527615 0.033941634 0.098921515
000230 77 21 d1 3d 41 33 9a 3d b4 bd e7 3d a1 47 a9 bc
       0.10211461 0.07529307 0.1131548 -0.020664038
000240 d7 ca 97 be 4e 69 47 be 6c c3 a5 3c f1 23 83 3e
       -0.29646942 -0.19473764 0.020234786 0.2561336
000250 1b b5 c4 bc 09 4e 42 3d 5f 21 25 3d fb 61 d8 3c
       -0.024012139 0.0474377 0.04031503 0.026413908
000260 10 75 d0 bd 42 3d 9c bd fe 7d e9 bd be 1e 5d 3d
       -0.10178578 -0.076288715 -0.11400984 0.053984396
000270 ab 3e 34 bf 6a 9e 1a bd 9f 1a 1c bf 53 71 1a bf
       -0.70408124 -0.03774873 -0.6097812 -0.6032917
000280 92 51 0e bf 3a 92 3b be 0a b2 7a bf 8a a4 fd bc
       -0.55593216 -0.183175 -0.97927916 -0.030962247
000290 94 48 64 bf de c3 65 bf 1e fe cc be c1 23 97 be
       -0.89173245 -0.89751995 -0.40037626 -0.29519466
0002a0 88 a2 20 bf 6d d4 15 bf 30 6d 46 3d 9e 65 22 be
       -0.62748003 -0.5852726 0.048443973 -0.15859076
0002b0 8d de f8 bc 61 49 e1 3c 0b 3b 65 bc 0b d2 94 bc
       -0.030379558 0.02750081 -0.013991128 -0.018166563
0002c0 4a e5 8f 3d e8 c6 c9 bd 01 8a d8 bd f2 1d 9e bd
       0.07026155 -0.098523915 -0.10573197 -0.07720555
0002d0 2a 53 d2 bc 8d e9 50 bc 46 cb 29 3d f7 c8 89 3d
       -0.025674421 -0.012750995 0.041453622 0.06727784
0002e0 64 fb c1 bc d9 5c 82 3d 25 40 32 bf ed 39 9a 3d
       -0.023679443 0.063653655 -0.69629127 0.0753058
0002f0 75 ea de 3d 20 73 b9 bc b0 db e3 bd 6c 70 a7 be
       0.10884563 -0.022637904 -0.111258864 -0.3270296
000300 66 6d 0f bd 84 4f 29 be 32 c1 16 bd b0 5b 24 bf
       -0.03501644 -0.16534239 -0.03680534 -0.64202404
000310 6e 66 4f bf 58 99 36 bf e0 ba ce bd 45 0b 7f 3f
       -0.8101567 -0.71327734 -0.10094237 0.9962657
000320 a0 27 2f bf 73 45 df 3d fe 42 e2 bf 8c 11 72 3e
       -0.6841984 0.10901918 -1.7676694 0.23639506
000330 ef cc 6c be 6b 7a 82 3d 60 ad bd bd 26 19 b7 3d
       -0.23125051 0.063710056 -0.09261584 0.089403436
000340 7e 25 16 bf 0f 4d 40 bf 10 1c 1a bf a5 32 07 be
       -0.5865096 -0.7511758 -0.6019907 -0.13202913
000350 7d 27 7d bd a4 25 07 bd 1c ed bb 3c ba d9 84 bd
       -0.061805237 -0.03299488 0.022940211 -0.064868405
000360 84 21 d8 bd e2 03 b5 bd 1f 9c 06 bf 5f ec 06 bf
       -0.105532676 -0.08838631 -0.5258197 -0.52704424
000370 4b 01 10 bf e4 73 5c bd 6f 4e a1 bf 87 df f6 be
       -0.5625197 -0.05382146 -1.2602061 -0.48217413
000380 ad e3 3c bf 62 d9 3b be 23 59 0e be 85 b0 81 bc
       -0.73784906 -0.18344644 -0.1390119 -0.015831241
000390 a4 77 89 bd 6c a9 31 bd aa d7 80 3d af e0 97 bd
       -0.06712273 -0.043374464 0.06291135 -0.07415902
0003a0 fa cf 9c 3d 52 35 30 3c ab fb f3 3e 5d 3b 60 3d
       0.07656856 0.0107549 0.47652945 0.054744113
0003b0 33 91 0b 3e 2b 6b 8c 3d a6 81 b2 3e a3 85 8d 3d
       0.13629608 0.06856378 0.3486454 0.06910255
0003c0 c3 4e 8c 3f 0c b7 3e 3d e3 39 6b 3f de fe 63 3f
       1.0961536 0.046561286 0.91885203 0.8906077
0003d0 80 e4 34 bd a2 11 e3 3e 59 63 08 be 1d 6f 54 3d
       -0.044163227 0.4434939 -0.13319148 0.05186378
0003e0 c0 b0 f9 bd 05 1f c8 3d 1e 79 22 3a 56 5d a9 bd
       -0.121919155 0.097715415 0.00061978574 -0.082697555
0003f0 90 5e c4 3c f2 95 ba 3a 2c d2 09 be 9a fa 92 bc
       0.023970872 0.0014235361 -0.1345908 -0.017941762

hidden_one.bias f4 [154]
000000 2a 70 2d be 60 0d 70 3d df 03 08 bf 0d 0f 6d be
       -0.16937318 0.058606505 -0.53130907 -0.23150273
000010 f7 13 92 bf 5f 39 a0 3c 22 fb 78 3e 77 ac 5d 3f
       -1.1412343 0.019558607 0.2431455 0.86591285
000020 e1 70 22 3f 6d c9 b3 3e 56 89 3c be 10 2a 46 be
       0.6345349 0.35114613 -0.18411765 -0.19351983
000030 d9 77 80 3c 21 e0 ba be df 96 26 bf 2e 6e ec 3e
       0.015682148 -0.36499122 -0.6507396 0.4617781
000040 64 9f a8 3c 1c f3 86 3e 08 cb b8 3e 85 cc 19 bf
       0.020583816 0.26357353 0.360924 -0.600777
000050 f2 a6 e7 be d7 80 09 bf 4d 6b 81 3f fa 33 e2 bd
       -0.45244557 -0.5371222 1.0110871 -0.1104507
000060 b0 db 72 be 76 3c 04 3f 5c 06 9a 3e bd f1 79 be
       -0.23716617 0.51654756 0.30082977 -0.24408622
000070 d1 ff a4 3e 27 a2 eb be 7d fd 11 bf 49 59 64 bf
       0.32226422 -0.4602215 -0.5702742 -0.8919874
000080 c4 2c 91 be 85 30 5a 3e cd 92 ba 3e fa 5b 35 bf
       -0.28354466 0.21307571 0.36440125 -0.7084347
000090 40 1d 04 3e 2a 5a c4 bc d4 fa 84 be 86 99 ca be
       0.12901783 -0.023968775 -0.25972617 -0.39570254
0000a0 a8 9f 3f bf 5d 56 05 3f e5 c1 0f 3f cf 77 f8 3e
       -0.7485299 0.52084905 0.56155235 0.48528907
0000b0 e9 43 b0 be fe 64 bd 3e 07 af 6b 3d 08 a4 ff 3e
       -0.3442681 0.36991113 0.057539966 0.49929833
0000c0 57 b6 53 bf b4 1a 33 be c5 84 f5 be 1e a2 08 bf
       -0.82700104 -0.17490655 -0.47952858 -0.5337237
0000d0 4b fb 4a bd f8 b9 de 3e 8c 33 e5 bc 75 d8 0e bf
       -0.049556058 0.43501258 -0.027978681 -0.5579904
0000e0 fd da ae be 6e 64 0a bf ff 36 65 be bd 9a 11 be
       -0.3415145 -0.54059494 -0.2238426 -0.14219184
0000f0 f3 17 ad be bf 44 25 be 69 5a ad be e1 bb 34 3d
       -0.33807334 -0.16139506 -0.3385804 0.044124488
000100 da 8a 3b bf ed 0c 8c be 19 7f 0b 3f 1e 3d d8 bf
       -0.73258746 -0.27353612 0.5449081 -1.6893651
000110 dc 5a c3 3e f2 e5 93 be e0 90 02 3f ec f8 27 bd
       0.38155258 -0.28886372 0.5100231 -0.041008875
000120 70 39 59 3f eb c0 51 3c ff c7 13 bf c6 69 b4 be
       0.8485327 0.012802343 -0.57727045 -0.3523695
000130 dc 2b 00 3d e1 8d 21 be d9 bd f2 3e 23 5e 8d bc
       0.031291828 -0.15776779 0.47410467 -0.017256802
000140 e4 72 6d bf 85 59 6f bf 0a d8 a5 3e c9 60 80 bd
       -0.92753434 -0.9349597 0.32391387 -0.0626846
000150 41 98 4e 3f 16 d9 b2 3d 34 3f 64 3d 42 db 83 be
       0.8070107 0.08732812 0.055724338 -0.25753218
000160 27 51 4f 3c f3 24 92 bf 45 a1 43 bf 85 21 87 3e
       0.012653626 -1.1417526 -0.7641795 0.2639276
000170 5b d2 98 3f ed de 28 3f af 6e b0 3e da 9d 9a be
       1.1939195 0.6596516 0.34459445 -0.30198556
000180 1e 28 3f 3f d5 5a bb be ed e5 d6 be f9 75 c3 3f
       0.7467059 -0.36592737 -0.41972294 1.5270377
000190 1e 7b ac 3c 0d e0 97 3f cd ff c6 3d 18 f4 dd be
       0.0210548 1.186525 0.09716759 -0.4335029
0001a0 6d b5 30 be f1 3a 3d be f4 2c 89 3e 36 b1 9e 3e
       -0.17256708 -0.18479516 0.2679211 0.30994576
0001b0 1f fd c1 be e7 5a a6 3e ab db 9d be 2b cc 2c 3e
       -0.3788843 0.32491228 -0.30831656 0.16874759
0001c0 8f ee 56 be f7 9a bd bd e9 88 55 be bc a2 e1 3e
       -0.2098944 -0.09258073 -0.20853008 0.4406947
0001d0 36 ed aa be ea 21 e5 be 40 70 18 bf 9c 42 15 3d
       -0.33384103 -0.44752437 -0.5954628 0.036440477
0001e0 2d ec 00 bf a9 3b 8a 3e c7 d9 3e 3f 9e cb eb be
       -0.50360376 0.26998642 0.7455105 -0.46053785
0001f0 34 f6 63 bf ed 4b 85 3f 6d ec 56 3e 42 f3 0b 3f
       -0.8904755 1.0413796 0.20988627 0.54668057
000200 8d a3 d3 3d 45 a4 e6 be 3b 5a ef be c5 07 19 3e
       0.10333929 -0.45047203 -0.46748528 0.1494437
000210 56 67 a0 3e 3d 33 3a bf 62 68 e8 be a0 db ad be
       0.3132884 -0.72734433 -0.45392138 -0.33956623
000220 98 fb f7 3e 44 06 3b 3f 69 98 f1 3e 75 2f 01 bf
       0.48434138 0.73056436 0.47186592 -0.5046304
000230 dd e2 82 be 76 aa b2 3e ba 14 7e be 88 0d 5b 3f
       -0.25563708 0.34895676 -0.24812594 0.8556752
000240 1f 7d a5 bd 62 1b 66 bf bd 89 71 bd 3f 7c 63 bd
       -0.080805056 -0.8988553 -0.058969248 -0.055538412
000250 bc 97 72 3e 5d 5d 2c 3e a2 10 c9 be cb 30 2d bf
       0.23690695 0.1683249 -0.39270502 -0.6765258
000260 55 14 f7 be c6 85 f3 3e
       -0.482577 0.47563

hidden_two.weight f4 [78, 154]
000000 86 af 28 3d 7c b9 09 bd fc dc f1 ba 72 bb 18 3d
       0.041183017 -0.033624157 -0.0018452699 0.037288137
000010 a3 9f 7e bc 48 a9 09 3b 82 90 e6 bc 3e 41 5a bd
       -0.01554099 0.002100544 -0.028145079 -0.053284876
000020 59 cb 70 bd 21 8a 45 3d 50 13 cb bc 06 cc b4 bd
       -0.058787677 0.048227433 -0.024789482 -0.08827977
000030 5a 82 6f 3c 59 f3 18 3d 1f 77 a7 bd fb 58 22 bb
       0.014618481 0.03734145 -0.081770174 -0.0024772275
000040 8f 8b 60 3c 14 3a 26 bd 77 b6 af 3d 3c ab 3d bd
       0.013705148 -0.04058273 0.08579724 -0.04630588
000050 2b de 26 bd 26 aa 7f 3d 7a db 2b 3d 4b ba 49 3d
       -0.04073922 0.062418126 0.041957356 0.04924993
000060 16 93 86 3d 5e 13 0a 3d 90 b6 9d 3c 86 9f cd bc
       0.06571023 0.033709876 0.019252092 -0.02510048
000070 6b db 55 3d c0 ca 8c 3c 06 ba 6f 3d 3f a6 5a 3d
       0.052211206 0.017186522 0.058527015 0.0533812
000080 14 70 9f bd 7a 97 87 3d 32 fc 05 3d ec 42 02 3c
       -0.07785049 0.06620689 0.032711215 0.007950526
000090 c6 53 5b 3d 42 dc 9d 3d 22 fe 07 3c 50 ed bd bc
       0.05354669 0.077080265 0.008300336 -0.023184448
0000a0 c2 ab 57 3d a0 0c 9e bc 9e 98 a5 bd 01 71 fb 3c
       0.052654035 -0.01929313 -0.0808575 0.030693533
0000b0 2d 77 e7 3b 94 6a 64 bd cf 4b 55 bd aa 3a 04 3c
       0.0070637674 -0.055765703 -0.05207425 0.008070627
0000c0 d6 36 91 bd 13 bc 02 3d 72 03 e6 3c e0 de 90 bd
       -0.07090537 0.031917643 0.028077815 -0.0707376
0000d0 11 0d 80 bd 38 d8 87 3d 5a 2b 48 3d 20 e8 34 bd
       -0.06252492 0.06633037 0.04886947 -0.044166684
0000e0 6f 2e 5e 3c ca 15 71 bd 67 f9 9c 3c 65 cb 00 bc
       0.013560875 -0.05885867 0.019161893 -0.007860993
0000f0 e2 f5 0d 3c a7 50 21 bc 9b 86 f3 3c 82 3a 6c bd
       0.00866458 -0.009845889 0.02972727 -0.057672985
000100 39 4c 35 3d 2d f4 f6 b9 a7 94 31 bc fd 44 e2 3c
       0.044262145 -0.00047102702 -0.010838664 0.027620787
000110 19 26 25 3d e4 ff 81 bd 00 29 9b 3c 70 6a 91 3d
       0.040319536 -0.063476354 0.018940449 0.071003795
000120 f2 cb 46 3d a1 12 3e bd 89 7d 3b 3d 10 44 17 bd
       0.04853434 -0.046404485 0.045774017 -0.036930144
000130 63 1a 13 3d 7d 2e aa bc 6a 95 a5 3d 3f c0 cb 3c
       0.035913836 -0.02077412 0.08085139 0.024871944
000140 eb dd 9a bd 1a d6 4b bd a6 c9 66 3d 7d 6c 36 bd
       -0.07561859 -0.04976473 0.05634465 -0.044537056
000150 d3 59 2f 3c e4 49 7c bc 98 90 9a bd 38 37 24 bb
       0.010702568 -0.015398476 -0.0754711 -0.0025057327
000160 0f 14 88 bd 44 d3 8e bd 65 27 8c 3c 2f 83 93 bd
       -0.06644451 -0.069738895 0.017108629 -0.07202756
000170 46 57 78 3c 97 f4 2e bc 66 5d 90 bd a1 0e bc 3d
       0.015157526 -0.010678432 -0.07049064 0.09182478
000180 c5 49 9b bb a8 d2 61 3d 78 01 93 bd 07 30 a0 3d
       -0.0047390186 0.055132538 -0.071780145 0.078216605
000190 57 09 55 3c 9a fc 73 3c f9 6d 3c bd c4 44 a8 bc
       0.013002715 0.014891768 -0.046003316 -0.020540603
0001a0 08 2d cf 39 6d 8f 16 3d df 3f ee bc 7f 73 16 bd
       0.00039515668 0.036757875 -0.02908319 -0.03673124
0001b0 36 d9 1d bd 78 a1 75 bd cc 19 8c bb ce a9 ac bd
       -0.038537227 -0.05996844 -0.004275536 -0.08430825
0001c0 5b 58 62 3d a9 e2 65 bc aa 90 4f 3d cf 07 4e 3d
       0.055260044 -0.014031091 0.05067507 0.050300416
0001d0 3a 0c 09 bd 99 39 d3 bc 76 7a a8 bc 4b 79 c8 bd
       -0.033458926 -0.0257843 -0.020566206 -0.0978876
0001e0 2d 6b 8b 3d 04 c9 8b bd 7f 35 0e 3c 9e 18 5c bc
       0.068075515 -0.0682545 0.008679747 -0.013433604
0001f0 7e b8 59 bd f0 13 0a bd 30 26 cb bd a2 41 d7 3c
       -0.05315446 -0.03371042 -0.09919393 0.026276413
000200 53 39 37 3c 52 e1 1e 3d b8 2c b8 3c 60 ef 59 3c
       0.011183101 0.0387891 0.022482261 0.0133017
000210 ee af c5 3c 8c 1d 84 bd 5f 4f 6d 3d c7 51 1f 3d
       0.024131741 -0.06450948 0.057937022 0.03889635
000220 4b a2 87 bd 9c b6 e8 3c 84 73 59 bd c2 83 f2 3c
       -0.06622752 0.028407387 -0.05308868 0.029603843
000230 96 91 d9 bc 2e d1 8c 3d 7d d8 a7 bd 61 9f 72 bd
       -0.026558679 0.06875835 -0.08195589 -0.059234027
000240 53 78 61 bc 24 59 6d bd 88 04 92 3d b5 c2 0d bb
       -0.013761598 -0.05794634 0.071297705 -0.0021630947
000250 ae 38 32 bd 75 bd 63 3c b9 18 12 3d ea f0 30 bc
       -0.043511085 0.013900151 0.03566811 -0.010799626
000260 e6 32 c1 b7 9d 56 3e bb f6 b0 47 39 47 17 8a bd
       -2.3031094e-05 -0.0029043325 0.00019044042 -0.06742721
000270 e5 d1 6f bd 03 df 9b bc e7 72 a9 bd 8b 0e a2 bd
       -0.05854978 -0.019027239 -0.08273869 -0.0791293
000280 b1 76 45 bb 02 7e ef bc 4a ba 83 3d fc 08 79 bd
       -0.003013056 -0.02923489 0.06432016 -0.060799584
000290 3e 20 ec 3b 53 a8 4b bc 7e 77 f2 3c e7 76 83 3d
       0.007205992 -0.012430268 0.029597994 0.06419163
0002a0 91 fb 94 bd 65 af aa bb b0 f6 87 3d c7 5f 19 bb
       -0.07274545 -0.005208897 0.06638849 -0.0023403035
0002b0 9c 04 49 bd e6 7a 08 3d de 12 36 bd 79 08 0e 3c
       -0.04907666 0.03332033 -0.044451587 0.008669012
0002c0 b6 13 b7 bd aa de fd 3c d5 1e b6 bd 7a b9 5c 3d
       -0.089393064 0.030989964 -0.088925995 0.05388782
0002d0 9c ed d5 bc 34 16 aa 3a 32 9d ff bd a1 8c 0d 3c
       -0.026114278 0.0012976588 -0.124811545 0.008639486
0002e0 cb f6 2e 3d a7 a3 de 3c bb 68 1a bd e6 ce 8f bd
       0.04271583 0.027177645 -0.037697535 -0.070218846
0002f0 a2 6d df bc 73 f3 f4 3c 3e 6d 1a bd 85 b2 55 3d
       -0.027273957 0.029901242 -0.037701838 0.052172203
000300 2e 41 88 3b 94 cd 08 bc cc 7b 57 3d 67 64 3e bd
       0.0041581606 -0.008349795 0.052608296 -0.04648247
000310 41 91 41 bd 3e 2b 41 3d e4 fb a6 bb 0d c2 ea bd
       -0.047257666 0.04716038 -0.0050959457 -0.114627935
000320 4c 35 8b bd b8 10 b4 3c 59 96 5f 3d 74 e1 51 bd
       -0.06797275 0.021980628 0.054586742 -0.0512404
000330 52 45 86 bd c2 61 4d bd f6 b2 03 bd 3b a5 88 3b
       -0.065561906 -0.050142057 -0.032153092 0.0041700876
000340 97 f9 54 3d 6e 09 3e 3d 82 ad 95 3c dc 65 d5 bc
       0.05199584 0.04639571 0.018271212 -0.026049547
000350 77 ba 17 3d 81 7c 4f 3c 75 02 78 bc 51 42 2a 3d
       0.03704306 0.012663961 -0.015137305 0.04156715
000360 26 ef e2 3c da 86 d0 bd 96 cb 38 3d 4e 6f da 3c
       0.027701925 -0.10181971 0.04511603 0.026664402
000370 9b f4 7d bd 0c 8d 81 3d 43 9b 38 3d c9 13 6c 3d
       -0.062000852 0.06325731 0.045069944 0.057636056
000380 76 b8 fa bb 37 78 9b 3c 58 4f 57 bd d6 39 45 bd
       -0.007651384 0.018978221 -0.052565902 -0.04815086
000390 e6 f2 73 3d 60 7e 80 3d ec e8 4d bd ea d8 56 3d
       0.059557818 0.06274104 -0.05027096 0.05245296
0003a0 17 0b 7c bc 8b f5 8b 3d 67 dd 8a bc 9c 30 a6 3d
       -0.015383503 0.06833943 -0.016951276 0.0811474
0003b0 57 4a 88 3d db 24 b1 3c 79 aa d0 bd f3 3b 8d 3d
       0.06654804 0.02162402 -0.10188765 0.068962
0003c0 a8 61 88 bc 76 0d 93 bd 25 50 3b 3d 0d c8 b3 3d
       -0.016648129 -0.07180302 0.04573073 0.08778391
0003d0 00 d8 83 3d 78 ad 90 bd af c5 0c bd 8f 28 ae 3b
       0.06437683 -0.070643365 -0.034368213 0.0053148936
0003e0 4f 76 97 3d 48 13 55 3d 2d 21 bc 3b 51 d0 b7 ba
       0.073956124 0.05202034 0.0057412595 -0.0014023875
0003f0 48 ba f6 bc b8 f6 27 be b2 5c c0 bd a0 d9 a9 bd
       -0.030118123 -0.1640271 -0.0939268 -0.08293462

hidden_two.bias f4 [78]
000000 5b 75 1b 3f cf 75 19 bf 9b 32 3a 3e df a4 14 3f
       0.60725945 -0.59945387 0.18183367 0.58064073
000010 36 3f 34 3e 61 4e 69 be 46 35 81 be eb 2b c7 3e
       0.17602238 -0.22783805 -0.25235957 0.38900694
000020 23 3c cf 3e ec eb 2e 3f f4 9b d3 3e d8 59 e3 be
       0.40475568 0.6832874 0.4132992 -0.44404483
000030 7d 52 0d bf 20 21 91 3e 12 fc 1d be 14 97 b8 3d
       -0.5520399 0.28345585 -0.15428188 0.09013191
000040 33 81 63 bd a9 ed d7 3d b1 f7 42 3e 10 74 00 bf
       -0.055543136 0.10543377 0.190398 -0.501771
000050 6b b4 3a bf 12 2d 16 3e 08 6c 4a 3f e8 93 06 be
       -0.72931546 0.1466563 0.7907109 -0.1314236
000060 a2 80 e2 bd 3e 66 a4 bf 53 6d 86 bd 19 83 d8 bd
       -0.11059691 -1.2843702 -0.06563821 -0.1057188
000070 84 72 51 be 45 8b a6 3e a4 fc d2 be 9d 32 30 3e
       -0.2045384 0.3252813 -0.41208375 0.17206807
000080 c5 f1 33 be 22 51 bd 3e b6 9f 54 3d ec 69 14 be
       -0.17572697 0.36975962 0.051910125 -0.14493531
000090 5d 2d 3f 3f 28 cb bc 3e 37 a8 b3 be 96 a3 15 bf
       0.74678594 0.36873746 -0.35089275 -0.5845274
0000a0 2b a1 25 bf 4e 6d 19 3f cc 1d 06 bf 40 0c 4e bf
       -0.6469905 0.5993241 -0.52389216 -0.8048744
0000b0 4b bf a2 3e 6f af 83 be 2b 4a 47 bf 60 1e 50 bf
       0.3178657 -0.25719783 -0.77847546 -0.8129635
0000c0 44 3b b3 be c1 51 59 3e 8b a9 9c bf 13 fb 32 be
       -0.35006154 0.21222593 -1.223924 -0.1747859
0000d0 ff 65 84 be 5e 08 b5 3e 5a 5f 98 be 70 da a8 3f
       -0.25859067 0.35357946 -0.29760247 1.3191662
0000e0 d9 19 e3 be c8 f9 8c 3f 57 e5 65 3f a4 bd 79 be
       -0.44355658 1.1013727 0.8980307 -0.24388748
0000f0 22 18 b7 3e 61 00 da 3d d9 9f 60 be a3 a5 1a 3e
       0.357606 0.106446035 -0.21935977 0.15102248
000100 77 66 37 bf 8c f2 6a 3e 17 81 3e be f9 9d 64 be
       -0.71640724 0.22944087 -0.18603931 -0.22325887
000110 a4 9b ed 3d 47 33 2b 3e c3 ed c5 be 53 fe 95 be
       0.11601952 0.1671878 -0.3865796 -0.29295596
000120 16 7d e0 bb dd 86 41 3e 95 49 f1 be f8 f2 98 be
       -0.006850849 0.18899103 -0.4712645 -0.2987287
000130 ca 78 8e be 35 a7 3c 3d
       -0.2782653 0.0460579

output.weight f4 [15, 78]
000000 81 20 ee 3b b7 ef 3e 3d 8b 8c 1f 3d 2c 0b 9e bc
       0.0072670584 0.04661533 0.03895239 -0.019292437
000010 ff 9c 12 3d d6 a9 ad bb 45 d6 57 3d ad 10 89 3d
       0.035794254 -0.005299787 0.052694578 0.06692634
000020 b1 39 b3 3d 07 db 2f bc 87 b4 8a 3d 04 6b 27 bc
       0.08751238 -0.0107333725 0.06772714 -0.010218386
000030 d9 40 47 bc 23 26 09 3d cb 61 93 bd 35 83 21 bd
       -0.012161457 0.033483636 -0.07196387 -0.03943177
000040 6b 9a 79 3d 6d c5 10 3d f2 6e d4 3b 9f 2a 53 3d
       0.06093828 0.03534453 0.0064829523 0.05155432
000050 c7 10 ed bb f2 29 58 3d 17 65 c9 bc d9 0a 4a 3d
       -0.007234666 0.052774377 -0.024584336 0.04932675
000060 34 42 81 3d da 9c 3b 3d eb e3 5e 3b b8 d0 21 bc
       0.06311455 0.045803882 0.0034010361 -0.009876423
000070 3b 0c d3 bc bc 40 b6 3c b6 22 c9 bc f6 a5 45 bd
       -0.025762668 0.022247665 -0.024552684 -0.048253976
000080 a9 13 a2 3c 37 85 ec 3c 87 1d a5 bc 0b 85 fb bc
       0.019784765 0.028872116 -0.020155681 -0.030703088
000090 57 59 f5 ba 03 a9 bd bc ed 67 90 bc 45 ff 65 bb
       -0.0018718642 -0.02315188 -0.01762768 -0.003509478
0000a0 9d 13 4d 3c c0 e1 af bd c6 d7 20 3c 4b 71 23 b9
       0.012516883 -0.0858798 0.009817069 -0.00015587096
0000b0 a9 14 5c bd c9 b2 ff bc 62 e7 26 3d 7e f7 46 3d
       -0.05373064 -0.031213181 0.040748008 0.04857587
0000c0 17 7c 02 3d 1c 11 24 3d 62 02 fc 3c ef 7a 66 bd
       0.031856623 0.04005538 0.030762855 -0.056269582
0000d0 0e 26 46 bd 90 b0 89 3d ec 0c 8a 3c 0d cf a7 ba
       -0.048376136 0.0672313 0.016851865 -0.0012802795
0000e0 6b c2 bb bc 0b b9 d8 bc dd 3d e8 3c f4 61 43 3d
       -0.022919854 -0.026455423 0.028349811 0.047700837
0000f0 de 5f 5b bb c9 4d 97 3d 81 50 be 3c bb 4c 73 bc
       -0.003347389 0.07387883 0.023231747 -0.014849837
000100 c6 2f 86 3c fb bf 44 3d 52 b1 91 3d 4a b6 3a 3d
       0.016380202 0.04803465 0.07113899 0.045584
000110 02 e5 dd ba 9a b1 08 bb dd ff a2 bc 5d b2 b1 3b
       -0.0016929212 -0.0020857812 -0.019897396 0.005422874
000120 35 9a ab bc b0 bd 60 ba 4a 55 9a 3d f4 7a e3 3c
       -0.020947555 -0.00085731875 0.07535799 0.02776859
000130 69 ed 79 3d 87 46 87 3d 3d 4d 65 bd 4f d4 0d 3d
       0.061017428 0.06605249 -0.055981863 0.0346263
000140 64 7b b1 bd 35 ed f7 3c 21 61 42 3d 09 c8 21 bc
       -0.08666113 0.030264476 0.04745591 -0.009874352
000150 41 ef a2 3d 22 79 51 bd 36 a8 80 3c e4 16 99 3d
       0.0795579 -0.051140912 0.01570521 0.07475069
000160 d6 b2 4e 3d d4 ac ec 3c 00 d0 a9 bc 51 7d b3 bd
       0.05046352 0.028891005 -0.020729065 -0.087641366
000170 5f d9 bd 3c 93 9d 85 3c 1b d2 20 bd 4c 66 be bd
       0.02317494 0.016310489 -0.039262872 -0.09296855
000180 44 1f d1 bd 17 c3 9e bd 6a e2 ae bc 0e 02 b4 bb
       -0.102110416 -0.07752054 -0.021348197 -0.005493409
000190 32 d7 19 3d 78 c8 e2 3c ba 1e 72 3d d0 0a a2 bd
       0.037558742 0.027683482 0.059111334 -0.079122186
0001a0 b1 1e b4 3d 56 c5 0c be 94 4f 74 3d ad 4f d4 bd
       0.087949164 -0.13747153 0.059646204 -0.103667594
0001b0 98 80 15 3d 81 04 86 bd 3e 57 96 3d ce 02 7d 3d
       0.03649959 -0.06543828 0.07340859 0.061770253
0001c0 e5 b7 07 bd d6 99 58 3d 06 3b 33 3d 3f f5 9b bd
       -0.03313436 0.052881084 0.04375746 -0.07615136
0001d0 0a d0 d1 bd b9 f9 2d 3e 7a 8d cc 3c 50 22 04 be
       -0.102447584 0.16989793 0.024969805 -0.12903714
0001e0 99 5a 8c 3d 33 bd 4b 3d b5 28 3e 3d bf 04 14 3c
       0.06853218 0.04974098 0.04642554 0.009034335
0001f0 77 f9 00 3e 4d 2c f3 bb 63 82 5b 3b ad ea b3 3d
       0.12595163 -0.0074210525 0.0033494465 0.08784995
000200 3a 7e 08 be 79 58 b4 3d f9 7a b3 bd e4 30 8f 3d
       -0.13329402 0.08805937 -0.087636895 0.06991747
000210 3b c9 1c bb cd cf 5c 3d ea 84 dd bc a4 b5 b4 bd
       -0.0023923654 0.05390911 -0.027040917 -0.08823708
000220 13 c2 32 bc 7e 3a 00 3e 69 8e d9 bc a4 f9 4d ba
       -0.010910529 0.12522313 -0.026557164 -0.0007857329
000230 60 32 ab 3d 1f 77 a6 3c 60 f5 0c bd b5 20 7b 3d
       0.08359218 0.020320473 -0.034413695 0.06131049
000240 af 7c 95 bd d4 b1 cc bd a0 ff 3d 3c 5d 1f 1c bc
       -0.07299172 -0.099948555 0.01159659 -0.009528962
000250 b8 0b e8 bb 79 e6 4b bd 18 e4 bb bc 50 4b 99 bd
       -0.007081475 -0.049780343 -0.022935912 -0.07485068
000260 77 f0 19 3b 87 24 2f 3d a2 0a 7e 3c 40 fc a3 bd
       0.0023489275 0.042759445 0.015505465 -0.08007097
000270 4a 8d 3a 3d ad f9 6a bd ce 3d 0b 3d ec 94 ae bb
       0.0455449 -0.057367016 0.03399449 -0.0053278115
000280 e3 14 a0 bc 0c 45 02 bd 33 63 2f bd 0d 24 87 3c
       -0.01954121 -0.03180413 -0.042819213 0.016496683
000290 d0 0a 3d bc 27 1d 3c 3d 4a 6d 10 3d 41 a8 88 3d
       -0.011538222 0.04592624 0.035260476 0.06672717
0002a0 85 7b 2d bd 6c 19 a5 3d 55 39 0b 3d 28 6a 92 bd
       -0.042354126 0.080614895 0.033990223 -0.07149154
0002b0 f6 7f a6 3d c5 ab 9c 3d f7 e7 80 3d 88 ca 92 3d
       0.08129875 0.0764995 0.06294244 0.07167536
0002c0 8c f7 6d 3d 30 9c b4 3c 5e ad a1 3d 9c 56 6d bd
       0.058097407 0.022047132 0.07894395 -0.057943925
0002d0 f3 10 94 3d 6a 90 c5 bb e9 dd 90 bd 7c eb 3f 3c
       0.07229795 -0.0060291784 -0.07073576 0.011713859
0002e0 6f 83 a2 bc a0 d1 88 3d 52 e1 42 bd 87 ac 20 3b
       -0.019838063 0.06680608 -0.047578163 0.0024516897
0002f0 dc 79 7d bd 10 a0 47 bc 96 f6 ac bd 43 e9 b3 3b
       -0.061883792 -0.012184158 -0.0844547 0.0054904534
000300 75 ea 63 3d 6c 23 5a bd d4 7a 4d 3a 1f 9b 4a 3d
       0.055643518 -0.053256437 0.0007838432 0.04946434
000310 2f 7c cc 3c 01 a9 b0 bc 26 20 3f bd fc f5 dd 3c
       0.02496156 -0.021564962 -0.04666152 0.027094834
000320 1b 39 1b bc d6 c3 c5 bb ad fc 57 3d 6e b8 93 bd
       -0.009474064 -0.0060353084 0.052731205 -0.072129115
000330 c0 a8 36 3c 96 d2 5e 3b 9e 39 41 bd 9c 84 ab 3d
       0.011148632 0.003400003 -0.04717409 0.083749026
000340 b5 8b 67 bc 22 a7 2d bd 0b ca a4 3c 48 fb 43 bd
       -0.01413243 -0.04239572 0.020115873 -0.047847062
000350 69 ed 6d bc b0 d8 77 bd bc d7 3d 3d f0 e9 26 bd
       -0.014521935 -0.060509384 0.04634832 -0.040750444
000360 87 ea 86 bd bf 51 63 3d 55 6e 68 bb f5 6c 72 bd
       -0.06587701 0.05549788 -0.0035466154 -0.05918594
000370 63 07 9a 3d 07 47 32 bb 55 26 c8 3c e9 39 5d bc
       0.0752094 -0.002720298 0.02443234 -0.013502576
000380 0c 59 a2 bc 20 bc a8 3d 4b ee 93 3d a1 92 95 bd
       -0.019817851 0.08239007 0.07223185 -0.07303358
000390 f7 2c ad bd 23 f3 8b 3c f1 da cb bc 90 ce 86 bd
       -0.08455842 0.01708371 -0.024884673 -0.065823674
0003a0 9b 59 ef ba d2 f2 0f 3d fd 05 9f bd d1 87 aa 39
       -0.0018260957 0.03514368 -0.07764814 0.00032526118
0003b0 26 44 cf bd 23 e8 65 3d 33 e7 a5 3c 62 63 0f 3d
       -0.1012042 0.056129586 0.020251846 0.03500689
0003c0 83 94 99 3c 55 a9 44 3d 61 f4 89 3d b9 25 83 3d
       0.018747574 0.04801305 0.06736065 0.064036794
0003d0 7b 1c 86 3d 6f e3 b2 3c b1 bb 97 3d 97 b2 f9 bd
       0.06548401 0.021836964 0.07408846 -0.121922664
0003e0 66 e1 ac 3d 6e 90 87 bc 85 58 15 bd 7b c7 31 bd
       0.08441429 -0.016548362 -0.036461372 -0.04340313
0003f0 4d 16 02 bd cd 47 cd 3c 06 44 93 3c 35 cd 78 3d
       -0.03175955 0.025058651 0.017976772 0.060742576

output.bias f4 [15]
000000 96 ec 32 bd d2 3c 3c 3e 31 5d ca be 70 79 eb be
       -0.043682657 0.18382576 -0.39524224 -0.45991087
000010 74 10 62 3f 96 6c 3b bf 08 79 0b bf ad cd 58 3f
       0.88306355 -0.73212564 -0.54481554 0.84688836
000020 5a 05 6c bd 9c d9 48 be d6 c6 ad bd c4 75 7d 3f
       -0.05762229 -0.19614261 -0.084851906 0.9900782
000030 64 11 19 be 7a 8e e8 3d 10 a6 3a bd
       -0.1494804 0.113553 -0.045568526
